…
red\n","if (device.type == 'cuda') and (ngpu > 1):\n","    netG = nn.DataParallel(netG, list(range(ngpu)))\n","netG.apply(weights_init)\n","# Print the model\n","print(netG)"],"metadata":{"colab":{"base_uri":"https://localhost:8080/"},"id":"f0aPjIavWzC6","executionInfo":{"status":"ok","timestamp":1686955059775,"user_tz":420,"elapsed":155,"user":{"displayName":"Abhishek Suryavanshi","userId":"12207228749541772052"}},"outputId":"50c65874-dba4-41c6-acf3-87da16ca4c12"},"execution_count":null,"outputs":[{"output_type":"stream","name":"stdout","text":["Generator(\n","  (main): Sequential(\n","    (0): ConvTranspose2d(100, 512, kernel_size=(4, 4), stride=(1, 1), bias=False)\n","    (1): BatchNorm2d(512, eps=1e-05, momentum=0.1, affine=True, track_running_stats=True)\n","    (2): ReLU(inplace=True)\n","    (3): ConvTranspose2d(512, 256, kernel_size=(4, 4), stride=(2, 2), padding=(1, 1), bias=False)\n","    (4): BatchNorm2d(256, eps=1e-05, momentum=0.1, affine=True, track_running_stats=True)\n","    (5): ReLU(inplace=True)\n","    (6): ConvTranspose2d(256, 128, kernel_size=(4, 4), stride=(2, 2), padding=(1, 1), bias=False)\n","    (7): BatchNorm2d(128, eps=1e-05, momentum=0.1, affine=True, track_running_stats=True)\n","    (8): ReLU(inplace=True)\n","    (9): ConvTranspose2d(128, 64, kernel_size=(4, 4), stride=(2, 2), padding=(1, 1), bias=False)\n","    (10): BatchNorm2d(64, eps=1e-05, momentum=0.1, affine=True, track_running_stats=True)\n","    (11): ReLU(inplace=True)\n","    (12): ConvTranspose2d(64, 3, kernel_size=(4, 4), stride=(2, 2), padding=(1, 1), bias=False)\n","    (13): Tanh()\n","  )\n",")\n"]}]},{"cell_type":"code","source":["class Discriminator(nn.Module):\n","    def __init__(self, ngpu):\n","        super(Discriminator, self).__init__()\n","        self.ngpu = ngpu\n","        self.main = nn.Sequential(\n","            # input is (nc) x 64 x 64\n","            nn.Conv2d(nc, n
…
n","if (device.type == 'cuda') and (ngpu > 1):\n","    netD = nn.DataParallel(netD, list(range(ngpu)))\n","netD.apply(weights_init)\n","# Print the model\n","print(netD)"],"metadata":{"colab":{"base_uri":"https://localhost:8080/"},"id":"ae1x3_WbW2g0","executionInfo":{"status":"ok","timestamp":1686955072161,"user_tz":420,"elapsed":164,"user":{"displayName":"Abhishek Suryavanshi","userId":"12207228749541772052"}},"outputId":"a224e2e1-59cd-4f31-f255-b14e0deb19e6"},"execution_count":null,"outputs":[{"output_type":"stream","name":"stdout","text":["Discriminator(\n","  (main): Sequential(\n","    (0): Conv2d(3, 64, kernel_size=(4, 4), stride=(2, 2), padding=(1, 1), bias=False)\n","    (1): LeakyReLU(negative_slope=0.2, inplace=True)\n","    (2): Conv2d(64, 128, kernel_size=(4, 4), stride=(2, 2), padding=(1, 1), bias=False)\n","    (3): BatchNorm2d(128, eps=1e-05, momentum=0.1, affine=True, track_running_stats=True)\n","    (4): LeakyReLU(negative_slope=0.2, inplace=True)\n","    (5): Conv2d(128, 256, kernel_size=(4, 4), stride=(2, 2), padding=(1, 1), bias=False)\n","    (6): BatchNorm2d(256, eps=1e-05, momentum=0.1, affine=True, track_running_stats=True)\n","    (7): LeakyReLU(negative_slope=0.2, inplace=True)\n","    (8): Conv2d(256, 512, kernel_size=(4, 4), stride=(2, 2), padding=(1, 1), bias=False)\n","    (9): BatchNorm2d(512, eps=1e-05, momentum=0.1, affine=True, track_running_stats=True)\n","    (10): LeakyReLU(negative_slope=0.2, inplace=True)\n","    (11): Conv2d(512, 1, kernel_size=(4, 4), stride=(1, 1), bias=False)\n","    (12): Sigmoid()\n","  )\n",")\n"]}]},{"cell_type":"code","source":["criterion = nn.BCELoss()\n","fixed_noise = torch.randn(64, nz, 1, 1, device=device)\n","# Establish convention for real and fake labels during training\n","real_label = 1.\n","fake_label = 0.\n","# Setup Adam optimizers for both G and D\n","optimizerD = optim.Adam(netD
…
